2025-08-29 16:40:07 - test_models INFO torch.Size([16, 64, 4, 4])
2025-08-29 16:40:07 - test_models INFO torch.Size([16, 64, 6, 6]), torch.Size([16, 64, 12, 12])
2025-08-29 16:40:07 - test_models INFO torch.Size([16, 16, 24, 24])
2025-08-29 16:40:12 - test_models INFO ==========================================================================================
Layer (type:depth-idx)                   Output Shape              Param #
==========================================================================================
UNet                                     [16, 1, 384, 384]         --
├─ModuleList: 1-1                        --                        --
│    └─Encoder: 2-1                      [16, 64, 192, 192]        --
│    │    └─ConvBlock: 3-1               [16, 64, 384, 384]        704
│    │    └─MaxPool2d: 3-2               [16, 64, 192, 192]        --
│    └─Encoder: 2-2                      [16, 128, 96, 96]         --
│    │    └─ConvBlock: 3-3               [16, 128, 192, 192]       73,984
│    │    └─MaxPool2d: 3-4               [16, 128, 96, 96]         --
│    └─Encoder: 2-3                      [16, 256, 48, 48]         --
│    │    └─ConvBlock: 3-5               [16, 256, 96, 96]         295,424
│    │    └─MaxPool2d: 3-6               [16, 256, 48, 48]         --
│    └─Encoder: 2-4                      [16, 512, 24, 24]         --
│    │    └─ConvBlock: 3-7               [16, 512, 48, 48]         1,180,672
│    │    └─MaxPool2d: 3-8               [16, 512, 24, 24]         --
├─ConvBlock: 1-2                         [16, 1024, 24, 24]        --
│    └─Conv2d: 2-5                       [16, 1024, 24, 24]        4,718,592
│    └─BatchNorm2d: 2-6                  [16, 1024, 24, 24]        2,048
│    └─ReLU: 2-7                         [16, 1024, 24, 24]        --
├─ModuleList: 1-3                        --                        --
│    └─Decoder: 2-8                      [16, 512, 48, 48]         --
│    │    └─ConvTranspose2d: 3-9         [16, 512, 48, 48]         2,097,664
│    │    └─ConvBlock: 3-10              [16, 512, 48, 48]         4,719,616
│    └─Decoder: 2-9                      [16, 256, 96, 96]         --
│    │    └─ConvTranspose2d: 3-11        [16, 256, 96, 96]         524,544
│    │    └─ConvBlock: 3-12              [16, 256, 96, 96]         1,180,160
│    └─Decoder: 2-10                     [16, 128, 192, 192]       --
│    │    └─ConvTranspose2d: 3-13        [16, 128, 192, 192]       131,200
│    │    └─ConvBlock: 3-14              [16, 128, 192, 192]       295,168
│    └─Decoder: 2-11                     [16, 64, 384, 384]        --
│    │    └─ConvTranspose2d: 3-15        [16, 64, 384, 384]        32,832
│    │    └─ConvBlock: 3-16              [16, 64, 384, 384]        73,856
├─Conv2d: 1-4                            [16, 1, 384, 384]         65
==========================================================================================
Total params: 15,326,529
Trainable params: 15,326,529
Non-trainable params: 0
Total mult-adds (T): 1.18
==========================================================================================
Input size (MB): 9.44
Forward/backward pass size (MB): 11494.49
Params size (MB): 61.31
Estimated Total Size (MB): 11565.23
…
